data.pth (torch, 6399 bytes, 6 tensors)

l1.weight f4 [8, 82]
00000000: ae1c 0c3f db1d aebc c87b 4d3e 741f 06be
00000010: 5805 0ebe e2d2 4a3e 5639 f23e 239e 86bd
00000020: f7e8 e9be 74fc 2c3e 6fd7 253f 2506 85be
00000030: d358 b33d 5f83 9a3e 5b86 cabe 769d d3bd
00000040: bd42 d03e 325e c9be bde9 e03d 81a0 52be
00000050: 73ce 223e 81dc aabe b439 afbe f8a1 f0bc
00000060: 9350 a93e d84e ccbe ed53 873e 8695 88be
00000070: 9384 bcbd e63c cd3c aa88 1d3f 1a3e e53e
00000080: 24cd 413f 6202 0d3f c37f 483e f017 173e
00000090: a932 133e e923 8c3e a990 dbbe 5f43 0b3e
000000a0: 284d a73e f48c fa3d 36a5 653e 0ef7 c4be
000000b0: 7d08 e6be 187f 39be f143 9c3e f109 c53e
000000c0: 53be 233e f86c a03e e2a7 50be f3a0 7f3e
000000d0: 2692 243f cae4 233f 21d6 7b3e 6427 3fbe
000000e0: c107 03bf 1de0 89be 5ffc 113e c0a4 20be
000000f0: 3f36 95be f756 cebe c305 01bf 4fc7 063e
00000100: 84f9 19be 445e 88bc 59e9 63be 88ef 623e
00000110: 9285 613f de2f e23e 0b91 2f3e 3db3 ba3e
00000120: 1064 94be 39af ebbd 034e 0b3e 3b25 b33e
00000130: 64db bd3d 53ab cfbe fefc a43d dc68 82be
00000140: 829d 753e c950 8d3e 8161 673e f0d4 683e
00000150: dbdc 633e 19e5 d3bc 5b86 ec3e 319f d93e
00000160: 4d49 bd3e 71e1 3bbe 9a9e a03e 387c ff3d
00000170: 0b5f ccbe 25cf 1ebf 509c 3b3d 1a0f f33e
00000180: 0bc0 b03e 5d0c 1c3e 2672 5e3e 5725 de3e
00000190: b3a3 0c3e 3d66 c73d 0fb5 e9be b143 323e
000001a0: 14c2 993e a14b 793e 3abb 8dbe eca4 a03e
000001b0: 7cb8 083f 56c9 1ebf 2221 f4bc 53b7 273e
000001c0: b756 213f 3be8 993e 10d3 ce3e e23d aa3e
000001d0: 929a d03e 3053 c63e 873d 473e 2aad af3e
000001e0: 8675 dfbc b6e6 e93e a406 033f 3f0d 35be
000001f0: 5b3c bbbe 0f7e a9be 4bc5 2e3e 206e e83d
00000200: 60a6 283c f4e2 c5be 8b87 3e3e 2c0b 54be
00000210: 3744 f13c afb8 b23e 4f28 f3be 58d2 14bf
00000220: 7ade 88bd 82cc f13e 994f 153e 270e 973e
00000230: b017 7b3d 566d 143d bb28 d2be a29e bf3e
00000240: 8936 043e 4f51 c83e 74d1 533e a0b6 bb3e
00000250: a109 443e 535a e33d 4481 b13e e623 883e
00000260: 3d0e 403e 46f4 af3e e965 ca3e 8702 2f3e
00000270: 471c 00bd 9bff 0f3f 1cef 8a3c f9b7 af3e
00000280: f59a 7f3e 6575 19bd 06f0 8fbe a945 0c3e
00000290: 4114 763e ecac a23e 4925 eb3e 618c 46be
000002a0: 470c 4f3e 9888 14be 8fec 33be 2d30 9a3e
000002b0: 1347 61bd fcdd 813e 503f 323f 7c9b 343f
000002c0: cca5 953e 99ba fc3d 7be0 2fbd db96 213e
000002d0: 2907 5e3e 251e 883d 3bc2 4d3e be0c a6bd
000002e0: a033 b03e 4c1d 90be 03c0 4e3e dbeb 793e
000002f0: dcd0 cc3e 5487 92be 673f c23d fe2d 283f
00000300: 8275 b33e 1ded e93b 0885 afbd ded0 04bb
00000310: 76d2 9ebe fb6d e8bd 8e61 883e ee51 bf3e
00000320: 14e8 083f 6898 ab3e 0715 2f3e 0b6c 293c
00000330: 32c5 5f3e 7c92 043f d1cf e23e 83e7 073f
00000340: f677 d0be 72d8 0dbe feb2 d63d ce05 9d3e
00000350: 1c6d 953e 2f26 cf3e 52b1 a8bc c08b 8f3e
00000360: efd2 233f 780c 5a3f 98a9 323f 1e50 f1bd
00000370: 2a53 dcbe 371d 203e a6d8 f83e 0886 d7bd
00000380: b8ad 0d3f f1ae 32be a2f2 f3be 955b df3e
00000390: 7a12 ff3d 7e86 4a3e 3f0c 7ebe 498c f83e
000003a0: fc28 27be 6ae0 303d c12e 9b3e 6b3c 8dbc
000003b0: 40cc a53e 731f 5c3e ded5 193f 35a1 323e
000003c0: 655b af3e 8565 dbbe bd71 ad3e 562e a93d
000003d0: 6e87 f53e 3556 6d3e 1f30 5abe 1c39 a83e
000003e0: d16b 833e 1b1c 0a3f 3e1a 003f dd78 75be
000003f0: 10a8 453e ae51 94be 3ff1 ee3e fe84 adbd
0.5473126 -0.02125447 0.2006675 -0.13097936 -0.13869226 0.19807008 0.4730937 -0.06573131
-0.4568555 0.16893178 0.6478185 -0.2598125 0.08757176 0.30178353 -0.3955563 -0.10332768
0.40675917 -0.39329678 0.10982082 -0.2056904 0.15899067 -0.33371356 -0.34223711 -0.029374108
0.33069286 -0.39903903 0.26431218 -0.26676577 -0.09204974 0.025053453 0.6153666 0.44773942
0.75703645 0.5508176 0.19579987 0.14755225 0.14374794 0.27371147 -0.42883804 0.13599919
0.32676053 0.12233916 0.22426304 -0.38469738 -0.4492835 -0.18114889 0.30520585 0.38484147
0.15990572 0.31333137 -0.20376542 0.24963741 0.64285505 0.6402098 0.24593402 -0.1866737
-0.51183707 -0.26928797 0.14256428 -0.15687847 -0.2914295 -0.40300724 -0.50399417 0.13161968
-0.15036589 -0.016646512 -0.22256984 0.22161686 0.8809444 0.44177145 0.17145173 0.36464873
-0.28982592 -0.115080304 0.13603978 0.34989342 0.09270361 -0.40560398 0.08056067 -0.25470626
0.23985866 0.27600697 0.22595789 0.22737479 0.22252218 -0.025866078 0.46196255 0.42504266
0.36969987 -0.18347718 0.31371003 0.12474865 -0.39916262 -0.6203483 0.045803368 0.4747246
0.34521517 0.15239091 0.21723232 0.43387863 0.13734321 0.09736297 -0.4564595 0.17408635
0.30030882 0.24345256 -0.27681905 0.31375825 0.534065 -0.62025964 -0.029800955 0.16378526
0.6302294 0.3005999 0.40395403 0.33250338 0.40742928 0.38735342 0.19457065 0.343118
-0.02727772 0.4568383 0.5118201 -0.17680834 -0.36569485 -0.33103988 0.17067449 0.1134913
0.010293573 -0.38649714 0.18606393 -0.20707387 0.029451473 0.34906527 -0.4749169 -0.5813346
-0.06683059 0.4722634 0.14581145 0.29502985 0.061301887 0.036237083 -0.410467 0.37425715
0.12911429 0.39124534 0.20685369 0.3666277 0.19144298 0.11101212 0.34668934 0.26589888
0.18755431 0.34366053 0.39530876 0.17090808 -0.031276967 0.562494 0.01695972 0.34320047
0.24961455 -0.03746547 -0.2811281 0.13698448 0.24031164 0.31772554 0.45926884 -0.19389488
0.20219527 -0.14505231 -0.17570709 0.3011488 -0.054999422 0.25364673 0.6962786 0.7054975
0.29228055 0.12340278 -0.04293869 0.15780203 0.21682419 0.066463746 0.20093624 -0.08107899
0.34414387 -0.28147352 0.20190434 0.24406378 0.40003097 -0.28618872 0.09484749 0.6569518
0.3505059 0.007138862 -0.085702956 -0.0020266096 -0.31019944 -0.11349102 0.26636928 0.37367195
0.53479123 0.33514714 0.17097865 0.010340701 0.21852568 0.5178602 0.44299176 0.53087634
-0.40716523 -0.13852099 0.10483359 0.3066849 0.29184806 0.4045882 -0.020592365 0.28036308
0.63993734 0.85175276 0.6979003 -0.11782859 -0.430322 0.15636145 0.4860279 -0.10523611
0.553432 -0.17449547 -0.47646052 0.4362456 0.12454696 0.19777867 -0.24809359 0.4854453
-0.16324228 0.043182768 0.30309108 -0.017240724 0.32382393 0.21496372 0.6009196 0.17444308
0.34249416 -0.4285089 0.33875838 0.08260791 0.47954887 0.23177417 -0.21307419 0.3285607
0.25668195 0.53949136 0.5004004 -0.23971887 0.19302392 -0.28968567 0.4666843 -0.08472632

l1.bias f4 [8]
00000000: 4f94 373f 99ca 1e3f 0a84 853f c4e0 033f
00000010: 2dfe 073f e2a2 ef3e 3582 643f aa06 823e
0.71710676 0.6202789 1.043092 0.5151484 0.53122216 0.46803957 0.8926118 0.2539571

l2.weight f4 [8, 8]
00000000: 4456 6f3f c4af 723e ae9c 1a3f 4760 f33e
00000010: 407a 2e3f 2e95 c13f ef53 74bf 3711 71be
00000020: e5a3 4dbf d9b5 7c3f 1177 883e 25d1 8d3f
00000030: 796c 7d3f 1f8c 17bf a239 953f 7a3d b43f
00000040: 78cf 2ebe 138b 7e3f 9478 d5bd d759 673f
00000050: 8c64 3c3f ba4f b13c b833 b13e 4cd8 b0bd
00000060: 6f43 473f 26bb 7cbf 0653 193f e542 043f
00000070: b9e5 6b3f e49c 73bf bd46 593f e614 71be
00000080: be4b c93e d188 5bbc 40b1 b73f 2715 87bf
00000090: 85dc 82bf 0998 1cbe 773f 7d3f b746 63be
000000a0: 147c a63f fd18 9f3e 9d2b 733e efb6 2d3e
000000b0: 753f 5a3f fe51 95bb 127a 81bf 65a5 0cbf
000000c0: 2b63 12bf ef62 18be 9383 193f 6a09 8c3f
000000d0: 1010 75be 3693 883f 729f f63e 0f67 9b3f
000000e0: c8a6 863f cd67 cd3f 4ba4 4b3e 1a0c 6ebf
000000f0: c661 cb3f 2160 8b3f a513 19bf 3c31 bbbc
0.93491006 0.23699862 0.60395324 0.4753439 0.6815529 1.5123651 -0.9544057 -0.23541723
-0.8032821 0.9871498 0.2665334 1.1079451 0.9899364 -0.5919818 1.1658213 1.4081261
-0.1707133 0.9943096 -0.10423389 0.9037146 0.7359092 0.021644462 0.3460977 -0.08635005
0.7783727 -0.98723066 0.5989231 0.5166457 0.92147404 -0.9516127 0.84873563 -0.23543128
0.393156 -0.013399319 1.4350967 -1.055333 -1.0223547 -0.15292372 0.98924965 -0.22194944
1.3006616 0.31073752 0.23747106 0.16964315 0.8525308 -0.0045568934 -1.0115378 -0.5493987
-0.5718257 -0.1488149 0.5996639 1.0940373 -0.23931909 1.0669925 0.48168522 1.2140826
1.0519648 1.6047302 0.19886892 -0.92987216 1.5889213 1.0888711 -0.597956 -0.022850625

l2.bias f4 [8]
00000000: b962 b7be 1d58 373e 4fbd ebbe afc9 5dbe
00000010: 8fb9 9b3f fa82 6ebd 0434 2ebf 5d5f 3f3f
-0.35817507 0.17904706 -0.46042868 -0.21658967 1.2166003 -0.058230378 -0.6804812 0.7475489

l3.weight f4 [10, 8]
00000000: ae31 95bf 1e89 f03e 8364 d13e 9160 82bf
00000010: 3419 4cbf f11c 6abf 921d 233f b267 afbf
00000020: a1f8 56bf 3212 ef3e 48c2 aabf 165b dd3e
00000030: c69c 273f 8053 93bf 7b16 703c 1e95 c2bf
00000040: 37b5 a2be 2bf5 393e 59d1 823e 4ad0 193f
00000050: 63ee 41bf 9831 833d 0cad e8bf 37fc 143f
00000060: 80ea f4be b2c2 dd3e 2ac6 95bf b1b0 f9bf
00000070: 836c ad3d 037f d8bf 5827 ed3e af0e 50be
00000080: 3fc2 603c 06ac 76bf 26dc edbf 71d1 383f
00000090: 36aa fb3e bf11 af3e 2dd8 5dbf 067a f1bd
000000a0: 1aea 053e 4989 4b3e d92d 113f c4fc a23e
000000b0: 0826 b5bf 1366 d1bf 7ec2 3a3c 930e 8cbd
000000c0: bd21 2e3f 771b b5bf 81d0 54bf f154 ccbf
000000d0: 2fc8 8cbe 6f52 4a3f 4d65 d0bf df29 3b3f
000000e0: 6f2f 043f 779d 62bf 1bf4 2ebf 8e0c 4cbf
000000f0: 7e43 c13e 4483 67bf 942d 323e afdc ef3d
00000100: 4971 073f 2b49 4abe 5004 65bd c869 aabf
00000110: c31d b8bf 0992 b83e a159 debb ff08 ff3d
00000120: 2218 6fbf 925b 393e 8a38 2bbe 1282 f2bf
00000130: 9160 8a3f cedf 06c0 2e11 ebbf acc3 403f
-1.1655786 0.46979612 0.40896997 -1.018572 -0.79725957 -0.9145041 0.63716996 -1.370352
-0.8397313 0.4669357 -1.334054 0.43233556 0.6547359 -1.1509857 0.014653797 -1.5201757
-0.3177888 0.1815993 0.25550345 0.6008345 -0.75754374 0.06405944 -1.817781 0.5819735
-0.4783516 0.43312603 -1.17011 -1.9507047 0.084679626 -1.6913761 0.4631908 -0.20318101
0.013718187 -0.96356237 -1.8582809 0.7219458 0.49153298 0.34193227 -0.86657983 -0.11790852
0.13077584 0.19876589 0.5671058 0.3183347 -1.4152231 -1.6359276 0.01139891 -0.06838717
0.6802023 -1.4149007 -0.8313065 -1.5963422 -0.27496478 0.79032034 -1.6280915 0.73110765
0.5163488 -0.8852152 -0.68341225 -0.79706657 0.37746805 -0.9043467 0.17400199 0.11712014
0.52907234 -0.19754474 -0.055912316 -1.3313532 -1.4384083 0.36048916 -0.006785587 0.12452888
-0.933962 0.18101338 -0.16720787 -1.8945944 1.081072 -2.10741 -1.8364618 0.7529857

l3.bias f4 [10]
00000000: c577 393a 40a9 98bd bc30 e53e ce91 febc
00000010: 1499 75bd 3c5c 84bd e628 d43d 238b abbe
00000020: a7cb e8bd a084 9e3e
0.0007075037 -0.07454157 0.44763744 -0.031075384 -0.05996044 -0.06462905 0.10359363 -0.3350459
-0.113669686 0.3096056
